…
early_stop = tf.keras.callbacks.EarlyStopping(monitor='val_loss', patience=30)

loss = "mean_squared_error"
metrics = [r2_score]


(ML) alida ~/Documents/uio/Master/FYS-STK4155/project3/code master(*&?) $ python CNN.py -rn reg10true3
________________________________________________________________

Analysis: regression
Save as:  reg10true3
________________________________________________________________

Model: "sequential"
_________________________________________________________________
Layer (type)                 Output Shape              Param #
=================================================================
conv2d (Conv2D)              (None, 28, 28, 16)        2896
_________________________________________________________________
max_pooling2d (MaxPooling2D) (None, 14, 14, 16)        0
_________________________________________________________________
conv2d_1 (Conv2D)            (None, 14, 14, 32)        4640
_________________________________________________________________
max_pooling2d_1 (MaxPooling2 (None, 7, 7, 32)          0
_________________________________________________________________
conv2d_2 (Conv2D)            (None, 7, 7, 64)          18496
_________________________________________________________________
max_pooling2d_2 (MaxPooling2 (None, 3, 3, 64)          0
_________________________________________________________________
flatten (Flatten)            (None, 576)               0
_________________________________________________________________
dense (Dense)                (None, 128)               73856
_________________________________________________________________
dense_1 (Dense)              (None, 1)                 129
=================================================================
Total params: 100,017
Trainable params: 100,017
Non-trainable params: 0
_________________________________________________________________

training: 640 - validation: 160 - Untrained, r2_score: -0.90%
_________________________________________________________________

Epoch 1/50
52/52 [==============================] - 2s 34ms/step - loss: 0.0736 - r2_score: -0.1391 - val_loss: 0.0679 - val_r2_score: -0.2270
…
