…
early_stop = tf.keras.callbacks.EarlyStopping(monitor='val_loss', patience=10)

loss = "mean_squared_error"
metrics = [r2_score]



(ML) alida ~/Documents/uio/Master/FYS-STK4155/project3/code master(*&?) $ python CNN.py -rn reg17gauss
________________________________________________________________

Analysis: regression
Save as:  reg17gauss
________________________________________________________________

Model: "sequential"
_________________________________________________________________
Layer (type)                 Output Shape              Param #
=================================================================
conv2d (Conv2D)              (None, 28, 28, 16)        8016
_________________________________________________________________
max_pooling2d (MaxPooling2D) (None, 14, 14, 16)        0
_________________________________________________________________
conv2d_1 (Conv2D)            (None, 14, 14, 32)        12832
_________________________________________________________________
max_pooling2d_1 (MaxPooling2 (None, 7, 7, 32)          0
_________________________________________________________________
conv2d_2 (Conv2D)            (None, 7, 7, 64)          51264
_________________________________________________________________
max_pooling2d_2 (MaxPooling2 (None, 3, 3, 64)          0
_________________________________________________________________
flatten (Flatten)            (None, 576)               0
_________________________________________________________________
dense (Dense)                (None, 128)               73856
_________________________________________________________________
dense_1 (Dense)              (None, 1)                 129
=================================================================
Total params: 146,097
Trainable params: 146,097
Non-trainable params: 0
_________________________________________________________________

training: 6400 - validation: 1600 - Untrained, r2_score: -3.45%
_________________________________________________________________

Epoch 1/50
512/512 [==============================] - 41s 79ms/step - loss: 0.0844 - r2_score: -0.1616 - val_loss: 0.0883 - val_r2_score: -0.1180 - lr: 1.0000e-04
…
