…
early_stop = tf.keras.callbacks.EarlyStopping(monitor='val_loss', patience=20)

loss = "binary_crossentropy"
metrics = ["accuracy"]



(ML) [haharder@hepp01 code]$ python CNN.py -cn clas10one
________________________________________________________________

Analysis: classification
Save as:  clas10one
________________________________________________________________

Model: "sequential"
_________________________________________________________________
Layer (type)                 Output Shape              Param #
=================================================================
conv2d (Conv2D)              (None, 28, 28, 16)        8016
_________________________________________________________________
max_pooling2d (MaxPooling2D) (None, 14, 14, 16)        0
_________________________________________________________________
conv2d_1 (Conv2D)            (None, 14, 14, 32)        12832
_________________________________________________________________
max_pooling2d_1 (MaxPooling2 (None, 7, 7, 32)          0
_________________________________________________________________
conv2d_2 (Conv2D)            (None, 7, 7, 64)          51264
_________________________________________________________________
max_pooling2d_2 (MaxPooling2 (None, 3, 3, 64)          0
_________________________________________________________________
flatten (Flatten)            (None, 576)               0
_________________________________________________________________
dense (Dense)                (None, 128)               73856
_________________________________________________________________
dense_1 (Dense)              (None, 1)                 129
=================================================================
Total params: 146,097
Trainable params: 146,097
Non-trainable params: 0
_________________________________________________________________

training: 6400 - validation: 1600 - Untrained, accuracy: 50.44%
_________________________________________________________________

Epoch 1/100
512/512 [==============================] - 4s 8ms/step - loss: 0.6931 - accuracy: 0.5119 - val_loss: 0.6924 - val_accuracy: 0.5109
…
