…
early_stop = tf.keras.callbacks.EarlyStopping(monitor='val_loss', patience=30)

loss = "mean_squared_error"
metrics = [r2_score]



(ML) alida ~/Documents/uio/Master/FYS-STK4155/project3/code master(*&?) $ python CNN.py -rn reg10true2
________________________________________________________________

Analysis: regression
Save as:  reg10true2
________________________________________________________________

Model: "sequential"
_________________________________________________________________
Layer (type)                 Output Shape              Param #
=================================================================
conv2d (Conv2D)              (None, 28, 28, 64)        32064
_________________________________________________________________
max_pooling2d (MaxPooling2D) (None, 14, 14, 64)        0
_________________________________________________________________
conv2d_1 (Conv2D)            (None, 14, 14, 128)       204928
_________________________________________________________________
max_pooling2d_1 (MaxPooling2 (None, 7, 7, 128)         0
_________________________________________________________________
conv2d_2 (Conv2D)            (None, 7, 7, 256)         819456
_________________________________________________________________
max_pooling2d_2 (MaxPooling2 (None, 3, 3, 256)         0
_________________________________________________________________
flatten (Flatten)            (None, 2304)              0
_________________________________________________________________
dense (Dense)                (None, 512)               1180160
_________________________________________________________________
dense_1 (Dense)              (None, 1)                 513
=================================================================
Total params: 2,237,121
Trainable params: 2,237,121
Non-trainable params: 0
_________________________________________________________________

training: 640 - validation: 160 - Untrained, r2_score: -5.18%
_________________________________________________________________

Epoch 1/50
52/52 [==============================] - 22s 432ms/step - loss: 0.0746 - r2_score: -0.0932 - val_loss: 0.0745 - val_r2_score: -0.1123
…
